…
.    251\n1282  Validación incorrecta mediante identificador d...    251\n1283  Validación incorrecta por identificador de art...    251\n1284  Validación incorrecta por identificador de art...    251\n1285  Validar Validación incorrecta por identificado...    251\n</code></pre>\n<p>As It is a custom model, I changed the value of out_features at out_proj in the classification part, so the resulting architecture looks like the following:</p>\n<pre><code class=\"lang-auto\">RobertaForSequenceClassification(\n  (roberta): RobertaModel(\n    (embeddings): RobertaEmbeddings(\n      (word_embeddings): Embedding(50262, 1024, padding_idx=1)\n      (position_embeddings): Embedding(514, 1024, padding_idx=1)\n      (token_type_embeddings): Embedding(1, 1024)\n      (LayerNorm): LayerNorm((1024,), eps=1e-05, elementwise_affine=True)\n      (dropout): Dropout(p=0.0, inplace=False)\n    )\n    (encoder): RobertaEncoder(\n      (layer): ModuleList(\n        (0-23): 24 x RobertaLayer(\n          (attention): RobertaAttention(\n            (self): RobertaSdpaSelfAttention(\n              (query): Linear(in_features=1024, out_features=1024, bias=True)\n              (key): Linear(in_features=1024, out_features=1024, bias=True)\n              (value): Linear(in_features=1024, out_features=1024, bias=True)\n              (dropout): Dropout(p=0.0, inplace=False)\n            )\n            (output): RobertaSelfOutput(\n              (dense): Linear(in_features=1024, out_features=1024, bias=True)\n              (LayerNorm): LayerNorm((1024,), eps=1e-05, elementwise_affine=True)\n              (dropout): Dropout(p=0.0, inplace=False)\n            )\n          )\n          (intermediate): RobertaIntermediate(\n            (dense): Linear(in_features=1024, out_features=4096, bias=True)\n            (intermediate_act_fn): GELUActivation()\n          )\n          (output): RobertaOutput(\n            (dense): Linear(in_features=4096, out_features=1024, bias=True)\n            (LayerNorm): LayerNorm((1024,), eps=1e-05, elementwise_affine=True)\n            (dropout): Dropout(p=0.0, inplace=False)\n          )\n        )\n      )\n    )\n  )\n  (classifier): RobertaClassificationHead(\n    (dense): Linear(in_features=1024, out_features=1024, bias=True)\n    (dropout): Dropout(p=0.0, inplace=False)\n    (out_proj): Linear(in_features=1024, out_features=252, bias=True)\n  )\n)\n</code></pre>\n<p>Then I use the following code in order to create a HuggingFace Dataset:</p>\n<pre data-code-wrap=\"python\"><code class=\"lang-python\">dataset = Dataset.from_pandas(df, split='train')\ndataset = dataset.train_test_split(shuffle=True, seed=42, test_size=0.2)\nprint(dataset)\n</code></pre>\n<p>Where the print gives the follow
…
